<?xml version="1.0"?>
<net name="torch-jit-export" version="11">
	<layers>
		<layer id="1" name="0" type="Parameter" version="opset1">
			<data shape="1,3,270,480" element_type="f32" />
			<output>
				<port id="0" precision="FP32" names="0">
					<dim>1</dim>
					<dim>3</dim>
					<dim>270</dim>
					<dim>480</dim>
					<rt_info>
						<attribute name="layout" version="0" layout="[N,C,H,W]" />
					</rt_info>
				</port>
			</output>
		</layer>
		<layer id="0" name="1" type="Parameter" version="opset1">
			<data shape="1,3,1080,1920" element_type="f32" />
			<output>
				<port id="0" precision="FP32" names="1">
					<dim>1</dim>
					<dim>3</dim>
					<dim>1080</dim>
					<dim>1920</dim>
					<rt_info>
						<attribute name="layout" version="0" layout="[N,C,H,W]" />
					</rt_info>
				</port>
			</output>
		</layer>
		<layer id="2" name="Constant_9694" type="Const" version="opset1">
			<data element_type="f32" shape="16, 3, 3, 3" offset="0" size="1728" />
			<rt_info>
				<attribute name="preprocessing" version="0" />
			</rt_info>
			<output>
				<port id="0" precision="FP32">
					<dim>16</dim>
					<dim>3</dim>
					<dim>3</dim>
					<dim>3</dim>
				</port>
			</output>
		</layer>
		<layer id="3" name="28/WithoutBiases" type="Convolution" version="opset1">
			<data strides="1, 1" dilations="1, 1" pads_begin="1, 1" pads_end="1, 1" auto_pad="explicit" />
			<rt_info>
				<attribute name="preprocessing" version="0" />
			</rt_info>
			<input>
				<port id="0" precision="FP32">
					<dim>1</dim>
					<dim>3</dim>
					<dim>270</dim>
					<dim>480</dim>
				</port>
				<port id="1" precision="FP32">
					<dim>16</dim>
					<dim>3</dim>
					<dim>3</dim>
					<dim>3</dim>
				</port>
			</input>
			<output>
				<port id="2" precision="FP32">
					<dim>1</dim>
					<dim>16</dim>
					<dim>270</dim>
					<dim>480</dim>
				</port>
			</output>
		</layer>
		<layer id="4" name="Reshape_142" type="Const" version="opset1">
			<data element_type="f32" shape="1, 16, 1, 1" offset="1728" size="64" />
			<output>
				<port id="0" precision="FP32">
					<dim>1</dim>
					<dim>16</dim>
					<dim>1</dim>
					<dim>1</dim>
				</port>
			</output>
		</layer>
		<layer id="5" name="28" type="Add" version="opset1">
			<data auto_broadcast="numpy" />
			<input>
				<port id="0" precision="FP32">
					<dim>1</dim>
					<dim>16</dim>
					<dim>270</dim>
					<dim>480</dim>
				</port>
				<port id="1" precision="FP32">
					<dim>1</dim>
					<dim>16</dim>
					<dim>1</dim>
					<dim>1</dim>
				</port>
			</input>
			<output>
				<port id="2" precision="FP32" names="28">
					<dim>1</dim>
					<dim>16</dim>
					<dim>270</dim>
					<dim>480</dim>
				</port>
			</output>
		</layer>
		<layer id="6" name="29" type="ReLU" version="opset1">
			<input>
				<port id="0" precision="FP32">
					<dim>1</dim>
					<dim>16</dim>
					<dim>270</dim>
					<dim>480</dim>
				</port>
			</input>
			<output>
				<port id="1" precision="FP32" names="29">
					<dim>1</dim>
					<dim>16</dim>
					<dim>270</dim>
					<dim>480</dim>
				</port>
			</output>
		</layer>
		<layer id="7" name="30" type="ReLU" version="opset1">
			<input>
				<port id="0" precision="FP32">
					<dim>1</dim>
					<dim>16</dim>
					<dim>270</dim>
					<dim>480</dim>
				</port>
			</input>
			<output>
				<port id="1" precision="FP32" names="30">
					<dim>1</dim>
					<dim>16</dim>
					<dim>270</dim>
					<dim>480</dim>
				</port>
			</output>
		</layer>
		<layer id="8" name="8" type="Const" version="opset1">
			<data element_type="f32" shape="16, 16, 3, 3" offset="1792" size="9216" />
			<output>
				<port id="0" precision="FP32" names="8">
					<dim>16</dim>
					<dim>16</dim>
					<dim>3</dim>
					<dim>3</dim>
				</port>
			</output>
		</layer>
		<layer id="9" name="31" type="Convolution" version="opset1">
			<data strides="1, 1" dilations="1, 1" pads_begin="1, 1" pads_end="1, 1" auto_pad="explicit" />
			<input>
				<port id="0" precision="FP32">
					<dim>1</dim>
					<dim>16</dim>
					<dim>270</dim>
					<dim>480</dim>
				</port>
				<port id="1" precision="FP32">
					<dim>16</dim>
					<dim>16</dim>
					<dim>3</dim>
					<dim>3</dim>
				</port>
			</input>
			<output>
				<port id="2" precision="FP32" names="31">
					<dim>1</dim>
					<dim>16</dim>
					<dim>270</dim>
					<dim>480</dim>
				</port>
			</output>
		</layer>
		<layer id="10" name="32" type="ReLU" version="opset1">
			<input>
				<port id="0" precision="FP32">
					<dim>1</dim>
					<dim>16</dim>
					<dim>270</dim>
					<dim>480</dim>
				</port>
			</input>
			<output>
				<port id="1" precision="FP32" names="32">
					<dim>1</dim>
					<dim>16</dim>
					<dim>270</dim>
					<dim>480</dim>
				</port>
			</output>
		</layer>
		<layer id="11" name="9" type="Const" version="opset1">
			<data element_type="f32" shape="16, 16, 3, 3" offset="11008" size="9216" />
			<output>
				<port id="0" precision="FP32" names="9">
					<dim>16</dim>
					<dim>16</dim>
					<dim>3</dim>
					<dim>3</dim>
				</port>
			</output>
		</layer>
		<layer id="12" name="33" type="Convolution" version="opset1">
			<data strides="1, 1" dilations="1, 1" pads_begin="1, 1" pads_end="1, 1" auto_pad="explicit" />
			<input>
				<port id="0" precision="FP32">
					<dim>1</dim>
					<dim>16</dim>
					<dim>270</dim>
					<dim>480</dim>
				</port>
				<port id="1" precision="FP32">
					<dim>16</dim>
					<dim>16</dim>
					<dim>3</dim>
					<dim>3</dim>
				</port>
			</input>
			<output>
				<port id="2" precision="FP32" names="33">
					<dim>1</dim>
					<dim>16</dim>
					<dim>270</dim>
					<dim>480</dim>
				</port>
			</output>
		</layer>
		<layer id="13" name="34" type="Add" version="opset1">
			<data auto_broadcast="numpy" />
			<input>
				<port id="0" precision="FP32">
					<dim>1</dim>
					<dim>16</dim>
					<dim>270</dim>
					<dim>480</dim>
				</port>
				<port id="1" precision="FP32">
					<dim>1</dim>
					<dim>16</dim>
					<dim>270</dim>
					<dim>480</dim>
				</port>
			</input>
			<output>
				<port id="2" precision="FP32" names="34">
					<dim>1</dim>
					<dim>16</dim>
					<dim>270</dim>
					<dim>480</dim>
				</port>
			</output>
		</layer>
		<layer id="14" name="35" type="ReLU" version="opset1">
			<input>
				<port id="0" precision="FP32">
					<dim>1</dim>
					<dim>16</dim>
					<dim>270</dim>
					<dim>480</dim>
				</port>
			</input>
			<output>
				<port id="1" precision="FP32" names="35">
					<dim>1</dim>
					<dim>16</dim>
					<dim>270</dim>
					<dim>480</dim>
				</port>
			</output>
		</layer>
		<layer id="15" name="10" type="Const" version="opset1">
			<data element_type="f32" shape="16, 16, 3, 3" offset="20224" size="9216" />
			<output>
				<port id="0" precision="FP32" names="10">
					<dim>16</dim>
					<dim>16</dim>
					<dim>3</dim>
					<dim>3</dim>
				</port>
			</output>
		</layer>
		<layer id="16" name="36" type="Convolution" version="opset1">
			<data strides="1, 1" dilations="1, 1" pads_begin="1, 1" pads_end="1, 1" auto_pad="explicit" />
			<input>
				<port id="0" precision="FP32">
					<dim>1</dim>
					<dim>16</dim>
					<dim>270</dim>
					<dim>480</dim>
				</port>
				<port id="1" precision="FP32">
					<dim>16</dim>
					<dim>16</dim>
					<dim>3</dim>
					<dim>3</dim>
				</port>
			</input>
			<output>
				<port id="2" precision="FP32" names="36">
					<dim>1</dim>
					<dim>16</dim>
					<dim>270</dim>
					<dim>480</dim>
				</port>
			</output>
		</layer>
		<layer id="17" name="37" type="ReLU" version="opset1">
			<input>
				<port id="0" precision="FP32">
					<dim>1</dim>
					<dim>16</dim>
					<dim>270</dim>
					<dim>480</dim>
				</port>
			</input>
			<output>
				<port id="1" precision="FP32" names="37">
					<dim>1</dim>
					<dim>16</dim>
					<dim>270</dim>
					<dim>480</dim>
				</port>
			</output>
		</layer>
		<layer id="18" name="11" type="Const" version="opset1">
			<data element_type="f32" shape="16, 16, 3, 3" offset="29440" size="9216" />
			<output>
				<port id="0" precision="FP32" names="11">
					<dim>16</dim>
					<dim>16</dim>
					<dim>3</dim>
					<dim>3</dim>
				</port>
			</output>
		</layer>
		<layer id="19" name="38" type="Convolution" version="opset1">
			<data strides="1, 1" dilations="1, 1" pads_begin="1, 1" pads_end="1, 1" auto_pad="explicit" />
			<input>
				<port id="0" precision="FP32">
					<dim>1</dim>
					<dim>16</dim>
					<dim>270</dim>
					<dim>480</dim>
				</port>
				<port id="1" precision="FP32">
					<dim>16</dim>
					<dim>16</dim>
					<dim>3</dim>
					<dim>3</dim>
				</port>
			</input>
			<output>
				<port id="2" precision="FP32" names="38">
					<dim>1</dim>
					<dim>16</dim>
					<dim>270</dim>
					<dim>480</dim>
				</port>
			</output>
		</layer>
		<layer id="20" name="39" type="Add" version="opset1">
			<data auto_broadcast="numpy" />
			<input>
				<port id="0" precision="FP32">
					<dim>1</dim>
					<dim>16</dim>
					<dim>270</dim>
					<dim>480</dim>
				</port>
				<port id="1" precision="FP32">
					<dim>1</dim>
					<dim>16</dim>
					<dim>270</dim>
					<dim>480</dim>
				</port>
			</input>
			<output>
				<port id="2" precision="FP32" names="39">
					<dim>1</dim>
					<dim>16</dim>
					<dim>270</dim>
					<dim>480</dim>
				</port>
			</output>
		</layer>
		<layer id="21" name="40" type="ReLU" version="opset1">
			<input>
				<port id="0" precision="FP32">
					<dim>1</dim>
					<dim>16</dim>
					<dim>270</dim>
					<dim>480</dim>
				</port>
			</input>
			<output>
				<port id="1" precision="FP32" names="40">
					<dim>1</dim>
					<dim>16</dim>
					<dim>270</dim>
					<dim>480</dim>
				</port>
			</output>
		</layer>
		<layer id="22" name="12" type="Const" version="opset1">
			<data element_type="f32" shape="16, 16, 3, 3" offset="38656" size="9216" />
			<output>
				<port id="0" precision="FP32" names="12">
					<dim>16</dim>
					<dim>16</dim>
					<dim>3</dim>
					<dim>3</dim>
				</port>
			</output>
		</layer>
		<layer id="23" name="41" type="Convolution" version="opset1">
			<data strides="1, 1" dilations="1, 1" pads_begin="1, 1" pads_end="1, 1" auto_pad="explicit" />
			<input>
				<port id="0" precision="FP32">
					<dim>1</dim>
					<dim>16</dim>
					<dim>270</dim>
					<dim>480</dim>
				</port>
				<port id="1" precision="FP32">
					<dim>16</dim>
					<dim>16</dim>
					<dim>3</dim>
					<dim>3</dim>
				</port>
			</input>
			<output>
				<port id="2" precision="FP32" names="41">
					<dim>1</dim>
					<dim>16</dim>
					<dim>270</dim>
					<dim>480</dim>
				</port>
			</output>
		</layer>
		<layer id="24" name="42" type="ReLU" version="opset1">
			<input>
				<port id="0" precision="FP32">
					<dim>1</dim>
					<dim>16</dim>
					<dim>270</dim>
					<dim>480</dim>
				</port>
			</input>
			<output>
				<port id="1" precision="FP32" names="42">
					<dim>1</dim>
					<dim>16</dim>
					<dim>270</dim>
					<dim>480</dim>
				</port>
			</output>
		</layer>
		<layer id="25" name="13" type="Const" version="opset1">
			<data element_type="f32" shape="16, 16, 3, 3" offset="47872" size="9216" />
			<output>
				<port id="0" precision="FP32" names="13">
					<dim>16</dim>
					<dim>16</dim>
					<dim>3</dim>
					<dim>3</dim>
				</port>
			</output>
		</layer>
		<layer id="26" name="43" type="Convolution" version="opset1">
			<data strides="1, 1" dilations="1, 1" pads_begin="1, 1" pads_end="1, 1" auto_pad="explicit" />
			<input>
				<port id="0" precision="FP32">
					<dim>1</dim>
					<dim>16</dim>
					<dim>270</dim>
					<dim>480</dim>
				</port>
				<port id="1" precision="FP32">
					<dim>16</dim>
					<dim>16</dim>
					<dim>3</dim>
					<dim>3</dim>
				</port>
			</input>
			<output>
				<port id="2" precision="FP32" names="43">
					<dim>1</dim>
					<dim>16</dim>
					<dim>270</dim>
					<dim>480</dim>
				</port>
			</output>
		</layer>
		<layer id="27" name="44" type="Add" version="opset1">
			<data auto_broadcast="numpy" />
			<input>
				<port id="0" precision="FP32">
					<dim>1</dim>
					<dim>16</dim>
					<dim>270</dim>
					<dim>480</dim>
				</port>
				<port id="1" precision="FP32">
					<dim>1</dim>
					<dim>16</dim>
					<dim>270</dim>
					<dim>480</dim>
				</port>
			</input>
			<output>
				<port id="2" precision="FP32" names="44">
					<dim>1</dim>
					<dim>16</dim>
					<dim>270</dim>
					<dim>480</dim>
				</port>
			</output>
		</layer>
		<layer id="28" name="45" type="ReLU" version="opset1">
			<input>
				<port id="0" precision="FP32">
					<dim>1</dim>
					<dim>16</dim>
					<dim>270</dim>
					<dim>480</dim>
				</port>
			</input>
			<output>
				<port id="1" precision="FP32" names="45">
					<dim>1</dim>
					<dim>16</dim>
					<dim>270</dim>
					<dim>480</dim>
				</port>
			</output>
		</layer>
		<layer id="29" name="14" type="Const" version="opset1">
			<data element_type="f32" shape="16, 16, 3, 3" offset="57088" size="9216" />
			<output>
				<port id="0" precision="FP32" names="14">
					<dim>16</dim>
					<dim>16</dim>
					<dim>3</dim>
					<dim>3</dim>
				</port>
			</output>
		</layer>
		<layer id="30" name="46" type="Convolution" version="opset1">
			<data strides="1, 1" dilations="1, 1" pads_begin="1, 1" pads_end="1, 1" auto_pad="explicit" />
			<input>
				<port id="0" precision="FP32">
					<dim>1</dim>
					<dim>16</dim>
					<dim>270</dim>
					<dim>480</dim>
				</port>
				<port id="1" precision="FP32">
					<dim>16</dim>
					<dim>16</dim>
					<dim>3</dim>
					<dim>3</dim>
				</port>
			</input>
			<output>
				<port id="2" precision="FP32" names="46">
					<dim>1</dim>
					<dim>16</dim>
					<dim>270</dim>
					<dim>480</dim>
				</port>
			</output>
		</layer>
		<layer id="31" name="47" type="ReLU" version="opset1">
			<input>
				<port id="0" precision="FP32">
					<dim>1</dim>
					<dim>16</dim>
					<dim>270</dim>
					<dim>480</dim>
				</port>
			</input>
			<output>
				<port id="1" precision="FP32" names="47">
					<dim>1</dim>
					<dim>16</dim>
					<dim>270</dim>
					<dim>480</dim>
				</port>
			</output>
		</layer>
		<layer id="32" name="15" type="Const" version="opset1">
			<data element_type="f32" shape="16, 16, 3, 3" offset="66304" size="9216" />
			<output>
				<port id="0" precision="FP32" names="15">
					<dim>16</dim>
					<dim>16</dim>
					<dim>3</dim>
					<dim>3</dim>
				</port>
			</output>
		</layer>
		<layer id="33" name="48" type="Convolution" version="opset1">
			<data strides="1, 1" dilations="1, 1" pads_begin="1, 1" pads_end="1, 1" auto_pad="explicit" />
			<input>
				<port id="0" precision="FP32">
					<dim>1</dim>
					<dim>16</dim>
					<dim>270</dim>
					<dim>480</dim>
				</port>
				<port id="1" precision="FP32">
					<dim>16</dim>
					<dim>16</dim>
					<dim>3</dim>
					<dim>3</dim>
				</port>
			</input>
			<output>
				<port id="2" precision="FP32" names="48">
					<dim>1</dim>
					<dim>16</dim>
					<dim>270</dim>
					<dim>480</dim>
				</port>
			</output>
		</layer>
		<layer id="34" name="49" type="Add" version="opset1">
			<data auto_broadcast="numpy" />
			<input>
				<port id="0" precision="FP32">
					<dim>1</dim>
					<dim>16</dim>
					<dim>270</dim>
					<dim>480</dim>
				</port>
				<port id="1" precision="FP32">
					<dim>1</dim>
					<dim>16</dim>
					<dim>270</dim>
					<dim>480</dim>
				</port>
			</input>
			<output>
				<port id="2" precision="FP32" names="49">
					<dim>1</dim>
					<dim>16</dim>
					<dim>270</dim>
					<dim>480</dim>
				</port>
			</output>
		</layer>
		<layer id="35" name="50" type="Concat" version="opset1">
			<data axis="1" />
			<input>
				<port id="0" precision="FP32">
					<dim>1</dim>
					<dim>16</dim>
					<dim>270</dim>
					<dim>480</dim>
				</port>
				<port id="1" precision="FP32">
					<dim>1</dim>
					<dim>16</dim>
					<dim>270</dim>
					<dim>480</dim>
				</port>
				<port id="2" precision="FP32">
					<dim>1</dim>
					<dim>16</dim>
					<dim>270</dim>
					<dim>480</dim>
				</port>
				<port id="3" precision="FP32">
					<dim>1</dim>
					<dim>16</dim>
					<dim>270</dim>
					<dim>480</dim>
				</port>
				<port id="4" precision="FP32">
					<dim>1</dim>
					<dim>16</dim>
					<dim>270</dim>
					<dim>480</dim>
				</port>
			</input>
			<output>
				<port id="5" precision="FP32" names="50">
					<dim>1</dim>
					<dim>80</dim>
					<dim>270</dim>
					<dim>480</dim>
				</port>
			</output>
		</layer>
		<layer id="36" name="16" type="Const" version="opset1">
			<data element_type="f32" shape="8, 80, 3, 3" offset="75520" size="23040" />
			<output>
				<port id="0" precision="FP32" names="16">
					<dim>8</dim>
					<dim>80</dim>
					<dim>3</dim>
					<dim>3</dim>
				</port>
			</output>
		</layer>
		<layer id="37" name="51/WithoutBiases" type="Convolution" version="opset1">
			<data strides="1, 1" dilations="1, 1" pads_begin="1, 1" pads_end="1, 1" auto_pad="explicit" />
			<input>
				<port id="0" precision="FP32">
					<dim>1</dim>
					<dim>80</dim>
					<dim>270</dim>
					<dim>480</dim>
				</port>
				<port id="1" precision="FP32">
					<dim>8</dim>
					<dim>80</dim>
					<dim>3</dim>
					<dim>3</dim>
				</port>
			</input>
			<output>
				<port id="2" precision="FP32">
					<dim>1</dim>
					<dim>8</dim>
					<dim>270</dim>
					<dim>480</dim>
				</port>
			</output>
		</layer>
		<layer id="38" name="Reshape_220" type="Const" version="opset1">
			<data element_type="f32" shape="1, 8, 1, 1" offset="98560" size="32" />
			<output>
				<port id="0" precision="FP32">
					<dim>1</dim>
					<dim>8</dim>
					<dim>1</dim>
					<dim>1</dim>
				</port>
			</output>
		</layer>
		<layer id="39" name="51" type="Add" version="opset1">
			<data auto_broadcast="numpy" />
			<input>
				<port id="0" precision="FP32">
					<dim>1</dim>
					<dim>8</dim>
					<dim>270</dim>
					<dim>480</dim>
				</port>
				<port id="1" precision="FP32">
					<dim>1</dim>
					<dim>8</dim>
					<dim>1</dim>
					<dim>1</dim>
				</port>
			</input>
			<output>
				<port id="2" precision="FP32" names="51">
					<dim>1</dim>
					<dim>8</dim>
					<dim>270</dim>
					<dim>480</dim>
				</port>
			</output>
		</layer>
		<layer id="40" name="52" type="ReLU" version="opset1">
			<input>
				<port id="0" precision="FP32">
					<dim>1</dim>
					<dim>8</dim>
					<dim>270</dim>
					<dim>480</dim>
				</port>
			</input>
			<output>
				<port id="1" precision="FP32" names="52">
					<dim>1</dim>
					<dim>8</dim>
					<dim>270</dim>
					<dim>480</dim>
				</port>
			</output>
		</layer>
		<layer id="41" name="18" type="Const" version="opset1">
			<data element_type="f32" shape="32, 8, 3, 3" offset="98592" size="9216" />
			<output>
				<port id="0" precision="FP32" names="18">
					<dim>32</dim>
					<dim>8</dim>
					<dim>3</dim>
					<dim>3</dim>
				</port>
			</output>
		</layer>
		<layer id="42" name="53/WithoutBiases" type="Convolution" version="opset1">
			<data strides="1, 1" dilations="1, 1" pads_begin="1, 1" pads_end="1, 1" auto_pad="explicit" />
			<input>
				<port id="0" precision="FP32">
					<dim>1</dim>
					<dim>8</dim>
					<dim>270</dim>
					<dim>480</dim>
				</port>
				<port id="1" precision="FP32">
					<dim>32</dim>
					<dim>8</dim>
					<dim>3</dim>
					<dim>3</dim>
				</port>
			</input>
			<output>
				<port id="2" precision="FP32">
					<dim>1</dim>
					<dim>32</dim>
					<dim>270</dim>
					<dim>480</dim>
				</port>
			</output>
		</layer>
		<layer id="43" name="Reshape_269" type="Const" version="opset1">
			<data element_type="f32" shape="1, 32, 1, 1" offset="107808" size="128" />
			<output>
				<port id="0" precision="FP32">
					<dim>1</dim>
					<dim>32</dim>
					<dim>1</dim>
					<dim>1</dim>
				</port>
			</output>
		</layer>
		<layer id="44" name="53" type="Add" version="opset1">
			<data auto_broadcast="numpy" />
			<input>
				<port id="0" precision="FP32">
					<dim>1</dim>
					<dim>32</dim>
					<dim>270</dim>
					<dim>480</dim>
				</port>
				<port id="1" precision="FP32">
					<dim>1</dim>
					<dim>32</dim>
					<dim>1</dim>
					<dim>1</dim>
				</port>
			</input>
			<output>
				<port id="2" precision="FP32" names="53">
					<dim>1</dim>
					<dim>32</dim>
					<dim>270</dim>
					<dim>480</dim>
				</port>
			</output>
		</layer>
		<layer id="45" name="54" type="ShapeOf" version="opset3">
			<data output_type="i64" />
			<input>
				<port id="0" precision="FP32">
					<dim>1</dim>
					<dim>32</dim>
					<dim>270</dim>
					<dim>480</dim>
				</port>
			</input>
			<output>
				<port id="1" precision="I64" names="54,57,60,63">
					<dim>4</dim>
				</port>
			</output>
		</layer>
		<layer id="46" name="Constant_299" type="Const" version="opset1">
			<data element_type="i64" shape="1" offset="107936" size="8" />
			<output>
				<port id="0" precision="I64">
					<dim>1</dim>
				</port>
			</output>
		</layer>
		<layer id="47" name="Constant_298" type="Const" version="opset1">
			<data element_type="i64" shape="1" offset="107944" size="8" />
			<output>
				<port id="0" precision="I64">
					<dim>1</dim>
				</port>
			</output>
		</layer>
		<layer id="48" name="Constant_300" type="Const" version="opset1">
			<data element_type="i64" shape="1" offset="107944" size="8" />
			<output>
				<port id="0" precision="I64">
					<dim>1</dim>
				</port>
			</output>
		</layer>
		<layer id="49" name="55" type="StridedSlice" version="opset1">
			<data begin_mask="0" end_mask="0" new_axis_mask="" shrink_axis_mask="" ellipsis_mask="" />
			<input>
				<port id="0" precision="I64">
					<dim>4</dim>
				</port>
				<port id="1" precision="I64">
					<dim>1</dim>
				</port>
				<port id="2" precision="I64">
					<dim>1</dim>
				</port>
				<port id="3" precision="I64">
					<dim>1</dim>
				</port>
			</input>
			<output>
				<port id="4" precision="I64" names="55">
					<dim>1</dim>
				</port>
			</output>
		</layer>
		<layer id="50" name="Constant_303" type="Const" version="opset1">
			<data element_type="u64" shape="1" offset="107936" size="8" />
			<output>
				<port id="0" precision="U64">
					<dim>1</dim>
				</port>
			</output>
		</layer>
		<layer id="51" name="56" type="Squeeze" version="opset1">
			<input>
				<port id="0" precision="I64">
					<dim>1</dim>
				</port>
				<port id="1" precision="U64">
					<dim>1</dim>
				</port>
			</input>
			<output>
				<port id="2" precision="I64" names="56" />
			</output>
		</layer>
		<layer id="52" name="Constant_358" type="Const" version="opset1">
			<data element_type="i64" shape="1" offset="107936" size="8" />
			<output>
				<port id="0" precision="I64">
					<dim>1</dim>
				</port>
			</output>
		</layer>
		<layer id="53" name="74" type="Unsqueeze" version="opset1">
			<input>
				<port id="0" precision="I64" />
				<port id="1" precision="I64">
					<dim>1</dim>
				</port>
			</input>
			<output>
				<port id="2" precision="I64" names="74">
					<dim>1</dim>
				</port>
			</output>
		</layer>
		<layer id="54" name="Constant_307" type="Const" version="opset1">
			<data element_type="i64" shape="1" offset="107944" size="8" />
			<output>
				<port id="0" precision="I64">
					<dim>1</dim>
				</port>
			</output>
		</layer>
		<layer id="55" name="Constant_306" type="Const" version="opset1">
			<data element_type="i64" shape="1" offset="107952" size="8" />
			<output>
				<port id="0" precision="I64">
					<dim>1</dim>
				</port>
			</output>
		</layer>
		<layer id="56" name="Constant_308" type="Const" version="opset1">
			<data element_type="i64" shape="1" offset="107944" size="8" />
			<output>
				<port id="0" precision="I64">
					<dim>1</dim>
				</port>
			</output>
		</layer>
		<layer id="57" name="58" type="StridedSlice" version="opset1">
			<data begin_mask="0" end_mask="0" new_axis_mask="" shrink_axis_mask="" ellipsis_mask="" />
			<input>
				<port id="0" precision="I64">
					<dim>4</dim>
				</port>
				<port id="1" precision="I64">
					<dim>1</dim>
				</port>
				<port id="2" precision="I64">
					<dim>1</dim>
				</port>
				<port id="3" precision="I64">
					<dim>1</dim>
				</port>
			</input>
			<output>
				<port id="4" precision="I64" names="58">
					<dim>1</dim>
				</port>
			</output>
		</layer>
		<layer id="58" name="Constant_311" type="Const" version="opset1">
			<data element_type="u64" shape="1" offset="107936" size="8" />
			<output>
				<port id="0" precision="U64">
					<dim>1</dim>
				</port>
			</output>
		</layer>
		<layer id="59" name="59" type="Squeeze" version="opset1">
			<input>
				<port id="0" precision="I64">
					<dim>1</dim>
				</port>
				<port id="1" precision="U64">
					<dim>1</dim>
				</port>
			</input>
			<output>
				<port id="2" precision="I64" names="59" />
			</output>
		</layer>
		<layer id="60" name="66" type="Const" version="opset1">
			<data element_type="i64" shape="" offset="107960" size="8" />
			<output>
				<port id="0" precision="I64" names="66" />
			</output>
		</layer>
		<layer id="61" name="67" type="Divide" version="opset1">
			<data auto_broadcast="numpy" m_pythondiv="true" />
			<input>
				<port id="0" precision="I64" />
				<port id="1" precision="I64" />
			</input>
			<output>
				<port id="2" precision="I64" names="67" />
			</output>
		</layer>
		<layer id="62" name="Constant_360" type="Const" version="opset1">
			<data element_type="i64" shape="1" offset="107936" size="8" />
			<output>
				<port id="0" precision="I64">
					<dim>1</dim>
				</port>
			</output>
		</layer>
		<layer id="63" name="75" type="Unsqueeze" version="opset1">
			<input>
				<port id="0" precision="I64" />
				<port id="1" precision="I64">
					<dim>1</dim>
				</port>
			</input>
			<output>
				<port id="2" precision="I64" names="75">
					<dim>1</dim>
				</port>
			</output>
		</layer>
		<layer id="64" name="76" type="Const" version="opset1">
			<data element_type="i64" shape="1" offset="107952" size="8" />
			<output>
				<port id="0" precision="I64" names="76">
					<dim>1</dim>
				</port>
			</output>
		</layer>
		<layer id="65" name="77" type="Const" version="opset1">
			<data element_type="i64" shape="1" offset="107952" size="8" />
			<output>
				<port id="0" precision="I64" names="77">
					<dim>1</dim>
				</port>
			</output>
		</layer>
		<layer id="66" name="Constant_315" type="Const" version="opset1">
			<data element_type="i64" shape="1" offset="107952" size="8" />
			<output>
				<port id="0" precision="I64">
					<dim>1</dim>
				</port>
			</output>
		</layer>
		<layer id="67" name="Constant_314" type="Const" version="opset1">
			<data element_type="i64" shape="1" offset="107968" size="8" />
			<output>
				<port id="0" precision="I64">
					<dim>1</dim>
				</port>
			</output>
		</layer>
		<layer id="68" name="Constant_316" type="Const" version="opset1">
			<data element_type="i64" shape="1" offset="107944" size="8" />
			<output>
				<port id="0" precision="I64">
					<dim>1</dim>
				</port>
			</output>
		</layer>
		<layer id="69" name="61" type="StridedSlice" version="opset1">
			<data begin_mask="0" end_mask="0" new_axis_mask="" shrink_axis_mask="" ellipsis_mask="" />
			<input>
				<port id="0" precision="I64">
					<dim>4</dim>
				</port>
				<port id="1" precision="I64">
					<dim>1</dim>
				</port>
				<port id="2" precision="I64">
					<dim>1</dim>
				</port>
				<port id="3" precision="I64">
					<dim>1</dim>
				</port>
			</input>
			<output>
				<port id="4" precision="I64" names="61">
					<dim>1</dim>
				</port>
			</output>
		</layer>
		<layer id="70" name="Constant_319" type="Const" version="opset1">
			<data element_type="u64" shape="1" offset="107936" size="8" />
			<output>
				<port id="0" precision="U64">
					<dim>1</dim>
				</port>
			</output>
		</layer>
		<layer id="71" name="62" type="Squeeze" version="opset1">
			<input>
				<port id="0" precision="I64">
					<dim>1</dim>
				</port>
				<port id="1" precision="U64">
					<dim>1</dim>
				</port>
			</input>
			<output>
				<port id="2" precision="I64" names="62" />
			</output>
		</layer>
		<layer id="72" name="Constant_366" type="Const" version="opset1">
			<data element_type="i64" shape="1" offset="107936" size="8" />
			<output>
				<port id="0" precision="I64">
					<dim>1</dim>
				</port>
			</output>
		</layer>
		<layer id="73" name="78" type="Unsqueeze" version="opset1">
			<input>
				<port id="0" precision="I64" />
				<port id="1" precision="I64">
					<dim>1</dim>
				</port>
			</input>
			<output>
				<port id="2" precision="I64" names="78">
					<dim>1</dim>
				</port>
			</output>
		</layer>
		<layer id="74" name="Constant_323" type="Const" version="opset1">
			<data element_type="i64" shape="1" offset="107968" size="8" />
			<output>
				<port id="0" precision="I64">
					<dim>1</dim>
				</port>
			</output>
		</layer>
		<layer id="75" name="Constant_322" type="Const" version="opset1">
			<data element_type="i64" shape="1" offset="107960" size="8" />
			<output>
				<port id="0" precision="I64">
					<dim>1</dim>
				</port>
			</output>
		</layer>
		<layer id="76" name="Constant_324" type="Const" version="opset1">
			<data element_type="i64" shape="1" offset="107944" size="8" />
			<output>
				<port id="0" precision="I64">
					<dim>1</dim>
				</port>
			</output>
		</layer>
		<layer id="77" name="64" type="StridedSlice" version="opset1">
			<data begin_mask="0" end_mask="0" new_axis_mask="" shrink_axis_mask="" ellipsis_mask="" />
			<input>
				<port id="0" precision="I64">
					<dim>4</dim>
				</port>
				<port id="1" precision="I64">
					<dim>1</dim>
				</port>
				<port id="2" precision="I64">
					<dim>1</dim>
				</port>
				<port id="3" precision="I64">
					<dim>1</dim>
				</port>
			</input>
			<output>
				<port id="4" precision="I64" names="64">
					<dim>1</dim>
				</port>
			</output>
		</layer>
		<layer id="78" name="Constant_327" type="Const" version="opset1">
			<data element_type="u64" shape="1" offset="107936" size="8" />
			<output>
				<port id="0" precision="U64">
					<dim>1</dim>
				</port>
			</output>
		</layer>
		<layer id="79" name="65" type="Squeeze" version="opset1">
			<input>
				<port id="0" precision="I64">
					<dim>1</dim>
				</port>
				<port id="1" precision="U64">
					<dim>1</dim>
				</port>
			</input>
			<output>
				<port id="2" precision="I64" names="65" />
			</output>
		</layer>
		<layer id="80" name="Constant_368" type="Const" version="opset1">
			<data element_type="i64" shape="1" offset="107936" size="8" />
			<output>
				<port id="0" precision="I64">
					<dim>1</dim>
				</port>
			</output>
		</layer>
		<layer id="81" name="79" type="Unsqueeze" version="opset1">
			<input>
				<port id="0" precision="I64" />
				<port id="1" precision="I64">
					<dim>1</dim>
				</port>
			</input>
			<output>
				<port id="2" precision="I64" names="79">
					<dim>1</dim>
				</port>
			</output>
		</layer>
		<layer id="82" name="80" type="Concat" version="opset1">
			<data axis="0" />
			<input>
				<port id="0" precision="I64">
					<dim>1</dim>
				</port>
				<port id="1" precision="I64">
					<dim>1</dim>
				</port>
				<port id="2" precision="I64">
					<dim>1</dim>
				</port>
				<port id="3" precision="I64">
					<dim>1</dim>
				</port>
				<port id="4" precision="I64">
					<dim>1</dim>
				</port>
				<port id="5" precision="I64">
					<dim>1</dim>
				</port>
			</input>
			<output>
				<port id="6" precision="I64" names="80">
					<dim>6</dim>
				</port>
			</output>
		</layer>
		<layer id="83" name="81" type="Reshape" version="opset1">
			<data special_zero="true" />
			<input>
				<port id="0" precision="FP32">
					<dim>1</dim>
					<dim>32</dim>
					<dim>270</dim>
					<dim>480</dim>
				</port>
				<port id="1" precision="I64">
					<dim>6</dim>
				</port>
			</input>
			<output>
				<port id="2" precision="FP32" names="81">
					<dim>1</dim>
					<dim>8</dim>
					<dim>2</dim>
					<dim>2</dim>
					<dim>270</dim>
					<dim>480</dim>
				</port>
			</output>
		</layer>
		<layer id="84" name="Constant_548" type="Const" version="opset1">
			<data element_type="i64" shape="6" offset="107976" size="48" />
			<output>
				<port id="0" precision="I64">
					<dim>6</dim>
				</port>
			</output>
		</layer>
		<layer id="85" name="82" type="Transpose" version="opset1">
			<input>
				<port id="0" precision="FP32">
					<dim>1</dim>
					<dim>8</dim>
					<dim>2</dim>
					<dim>2</dim>
					<dim>270</dim>
					<dim>480</dim>
				</port>
				<port id="1" precision="I64">
					<dim>6</dim>
				</port>
			</input>
			<output>
				<port id="2" precision="FP32" names="82">
					<dim>1</dim>
					<dim>8</dim>
					<dim>270</dim>
					<dim>2</dim>
					<dim>480</dim>
					<dim>2</dim>
				</port>
			</output>
		</layer>
		<layer id="86" name="Constant_550" type="Const" version="opset1">
			<data element_type="i64" shape="1" offset="107936" size="8" />
			<output>
				<port id="0" precision="I64">
					<dim>1</dim>
				</port>
			</output>
		</layer>
		<layer id="87" name="83" type="Unsqueeze" version="opset1">
			<input>
				<port id="0" precision="I64" />
				<port id="1" precision="I64">
					<dim>1</dim>
				</port>
			</input>
			<output>
				<port id="2" precision="I64" names="83">
					<dim>1</dim>
				</port>
			</output>
		</layer>
		<layer id="88" name="Constant_552" type="Const" version="opset1">
			<data element_type="i64" shape="1" offset="107936" size="8" />
			<output>
				<port id="0" precision="I64">
					<dim>1</dim>
				</port>
			</output>
		</layer>
		<layer id="89" name="84" type="Unsqueeze" version="opset1">
			<input>
				<port id="0" precision="I64" />
				<port id="1" precision="I64">
					<dim>1</dim>
				</port>
			</input>
			<output>
				<port id="2" precision="I64" names="84">
					<dim>1</dim>
				</port>
			</output>
		</layer>
		<layer id="90" name="68" type="Const" version="opset1">
			<data element_type="i64" shape="" offset="107952" size="8" />
			<output>
				<port id="0" precision="I64" names="68" />
			</output>
		</layer>
		<layer id="91" name="69" type="Multiply" version="opset1">
			<data auto_broadcast="numpy" />
			<input>
				<port id="0" precision="I64" />
				<port id="1" precision="I64" />
			</input>
			<output>
				<port id="2" precision="I64" names="69" />
			</output>
		</layer>
		<layer id="92" name="Constant_554" type="Const" version="opset1">
			<data element_type="i64" shape="1" offset="107936" size="8" />
			<output>
				<port id="0" precision="I64">
					<dim>1</dim>
				</port>
			</output>
		</layer>
		<layer id="93" name="85" type="Unsqueeze" version="opset1">
			<input>
				<port id="0" precision="I64" />
				<port id="1" precision="I64">
					<dim>1</dim>
				</port>
			</input>
			<output>
				<port id="2" precision="I64" names="85">
					<dim>1</dim>
				</port>
			</output>
		</layer>
		<layer id="94" name="70" type="Const" version="opset1">
			<data element_type="i64" shape="" offset="107952" size="8" />
			<output>
				<port id="0" precision="I64" names="70" />
			</output>
		</layer>
		<layer id="95" name="71" type="Multiply" version="opset1">
			<data auto_broadcast="numpy" />
			<input>
				<port id="0" precision="I64" />
				<port id="1" precision="I64" />
			</input>
			<output>
				<port id="2" precision="I64" names="71" />
			</output>
		</layer>
		<layer id="96" name="Constant_556" type="Const" version="opset1">
			<data element_type="i64" shape="1" offset="107936" size="8" />
			<output>
				<port id="0" precision="I64">
					<dim>1</dim>
				</port>
			</output>
		</layer>
		<layer id="97" name="86" type="Unsqueeze" version="opset1">
			<input>
				<port id="0" precision="I64" />
				<port id="1" precision="I64">
					<dim>1</dim>
				</port>
			</input>
			<output>
				<port id="2" precision="I64" names="86">
					<dim>1</dim>
				</port>
			</output>
		</layer>
		<layer id="98" name="87" type="Concat" version="opset1">
			<data axis="0" />
			<input>
				<port id="0" precision="I64">
					<dim>1</dim>
				</port>
				<port id="1" precision="I64">
					<dim>1</dim>
				</port>
				<port id="2" precision="I64">
					<dim>1</dim>
				</port>
				<port id="3" precision="I64">
					<dim>1</dim>
				</port>
			</input>
			<output>
				<port id="4" precision="I64" names="87">
					<dim>4</dim>
				</port>
			</output>
		</layer>
		<layer id="99" name="88" type="Reshape" version="opset1">
			<data special_zero="true" />
			<input>
				<port id="0" precision="FP32">
					<dim>1</dim>
					<dim>8</dim>
					<dim>270</dim>
					<dim>2</dim>
					<dim>480</dim>
					<dim>2</dim>
				</port>
				<port id="1" precision="I64">
					<dim>4</dim>
				</port>
			</input>
			<output>
				<port id="2" precision="FP32" names="88">
					<dim>1</dim>
					<dim>8</dim>
					<dim>540</dim>
					<dim>960</dim>
				</port>
			</output>
		</layer>
		<layer id="100" name="89" type="ReLU" version="opset1">
			<input>
				<port id="0" precision="FP32">
					<dim>1</dim>
					<dim>8</dim>
					<dim>540</dim>
					<dim>960</dim>
				</port>
			</input>
			<output>
				<port id="1" precision="FP32" names="89">
					<dim>1</dim>
					<dim>8</dim>
					<dim>540</dim>
					<dim>960</dim>
				</port>
			</output>
		</layer>
		<layer id="101" name="20" type="Const" version="opset1">
			<data element_type="f32" shape="32, 8, 3, 3" offset="108024" size="9216" />
			<output>
				<port id="0" precision="FP32" names="20">
					<dim>32</dim>
					<dim>8</dim>
					<dim>3</dim>
					<dim>3</dim>
				</port>
			</output>
		</layer>
		<layer id="102" name="90/WithoutBiases" type="Convolution" version="opset1">
			<data strides="1, 1" dilations="1, 1" pads_begin="1, 1" pads_end="1, 1" auto_pad="explicit" />
			<input>
				<port id="0" precision="FP32">
					<dim>1</dim>
					<dim>8</dim>
					<dim>540</dim>
					<dim>960</dim>
				</port>
				<port id="1" precision="FP32">
					<dim>32</dim>
					<dim>8</dim>
					<dim>3</dim>
					<dim>3</dim>
				</port>
			</input>
			<output>
				<port id="2" precision="FP32">
					<dim>1</dim>
					<dim>32</dim>
					<dim>540</dim>
					<dim>960</dim>
				</port>
			</output>
		</layer>
		<layer id="103" name="Reshape_763" type="Const" version="opset1">
			<data element_type="f32" shape="1, 32, 1, 1" offset="117240" size="128" />
			<output>
				<port id="0" precision="FP32">
					<dim>1</dim>
					<dim>32</dim>
					<dim>1</dim>
					<dim>1</dim>
				</port>
			</output>
		</layer>
		<layer id="104" name="90" type="Add" version="opset1">
			<data auto_broadcast="numpy" />
			<input>
				<port id="0" precision="FP32">
					<dim>1</dim>
					<dim>32</dim>
					<dim>540</dim>
					<dim>960</dim>
				</port>
				<port id="1" precision="FP32">
					<dim>1</dim>
					<dim>32</dim>
					<dim>1</dim>
					<dim>1</dim>
				</port>
			</input>
			<output>
				<port id="2" precision="FP32" names="90">
					<dim>1</dim>
					<dim>32</dim>
					<dim>540</dim>
					<dim>960</dim>
				</port>
			</output>
		</layer>
		<layer id="105" name="91" type="ShapeOf" version="opset3">
			<data output_type="i64" />
			<input>
				<port id="0" precision="FP32">
					<dim>1</dim>
					<dim>32</dim>
					<dim>540</dim>
					<dim>960</dim>
				</port>
			</input>
			<output>
				<port id="1" precision="I64" names="100,91,94,97">
					<dim>4</dim>
				</port>
			</output>
		</layer>
		<layer id="106" name="Constant_793" type="Const" version="opset1">
			<data element_type="i64" shape="1" offset="107936" size="8" />
			<output>
				<port id="0" precision="I64">
					<dim>1</dim>
				</port>
			</output>
		</layer>
		<layer id="107" name="Constant_792" type="Const" version="opset1">
			<data element_type="i64" shape="1" offset="107944" size="8" />
			<output>
				<port id="0" precision="I64">
					<dim>1</dim>
				</port>
			</output>
		</layer>
		<layer id="108" name="Constant_794" type="Const" version="opset1">
			<data element_type="i64" shape="1" offset="107944" size="8" />
			<output>
				<port id="0" precision="I64">
					<dim>1</dim>
				</port>
			</output>
		</layer>
		<layer id="109" name="92" type="StridedSlice" version="opset1">
			<data begin_mask="0" end_mask="0" new_axis_mask="" shrink_axis_mask="" ellipsis_mask="" />
			<input>
				<port id="0" precision="I64">
					<dim>4</dim>
				</port>
				<port id="1" precision="I64">
					<dim>1</dim>
				</port>
				<port id="2" precision="I64">
					<dim>1</dim>
				</port>
				<port id="3" precision="I64">
					<dim>1</dim>
				</port>
			</input>
			<output>
				<port id="4" precision="I64" names="92">
					<dim>1</dim>
				</port>
			</output>
		</layer>
		<layer id="110" name="Constant_797" type="Const" version="opset1">
			<data element_type="u64" shape="1" offset="107936" size="8" />
			<output>
				<port id="0" precision="U64">
					<dim>1</dim>
				</port>
			</output>
		</layer>
		<layer id="111" name="93" type="Squeeze" version="opset1">
			<input>
				<port id="0" precision="I64">
					<dim>1</dim>
				</port>
				<port id="1" precision="U64">
					<dim>1</dim>
				</port>
			</input>
			<output>
				<port id="2" precision="I64" names="93" />
			</output>
		</layer>
		<layer id="112" name="Constant_852" type="Const" version="opset1">
			<data element_type="i64" shape="1" offset="107936" size="8" />
			<output>
				<port id="0" precision="I64">
					<dim>1</dim>
				</port>
			</output>
		</layer>
		<layer id="113" name="111" type="Unsqueeze" version="opset1">
			<input>
				<port id="0" precision="I64" />
				<port id="1" precision="I64">
					<dim>1</dim>
				</port>
			</input>
			<output>
				<port id="2" precision="I64" names="111">
					<dim>1</dim>
				</port>
			</output>
		</layer>
		<layer id="114" name="Constant_801" type="Const" version="opset1">
			<data element_type="i64" shape="1" offset="107944" size="8" />
			<output>
				<port id="0" precision="I64">
					<dim>1</dim>
				</port>
			</output>
		</layer>
		<layer id="115" name="Constant_800" type="Const" version="opset1">
			<data element_type="i64" shape="1" offset="107952" size="8" />
			<output>
				<port id="0" precision="I64">
					<dim>1</dim>
				</port>
			</output>
		</layer>
		<layer id="116" name="Constant_802" type="Const" version="opset1">
			<data element_type="i64" shape="1" offset="107944" size="8" />
			<output>
				<port id="0" precision="I64">
					<dim>1</dim>
				</port>
			</output>
		</layer>
		<layer id="117" name="95" type="StridedSlice" version="opset1">
			<data begin_mask="0" end_mask="0" new_axis_mask="" shrink_axis_mask="" ellipsis_mask="" />
			<input>
				<port id="0" precision="I64">
					<dim>4</dim>
				</port>
				<port id="1" precision="I64">
					<dim>1</dim>
				</port>
				<port id="2" precision="I64">
					<dim>1</dim>
				</port>
				<port id="3" precision="I64">
					<dim>1</dim>
				</port>
			</input>
			<output>
				<port id="4" precision="I64" names="95">
					<dim>1</dim>
				</port>
			</output>
		</layer>
		<layer id="118" name="Constant_805" type="Const" version="opset1">
			<data element_type="u64" shape="1" offset="107936" size="8" />
			<output>
				<port id="0" precision="U64">
					<dim>1</dim>
				</port>
			</output>
		</layer>
		<layer id="119" name="96" type="Squeeze" version="opset1">
			<input>
				<port id="0" precision="I64">
					<dim>1</dim>
				</port>
				<port id="1" precision="U64">
					<dim>1</dim>
				</port>
			</input>
			<output>
				<port id="2" precision="I64" names="96" />
			</output>
		</layer>
		<layer id="120" name="103" type="Const" version="opset1">
			<data element_type="i64" shape="" offset="107960" size="8" />
			<output>
				<port id="0" precision="I64" names="103" />
			</output>
		</layer>
		<layer id="121" name="104" type="Divide" version="opset1">
			<data auto_broadcast="numpy" m_pythondiv="true" />
			<input>
				<port id="0" precision="I64" />
				<port id="1" precision="I64" />
			</input>
			<output>
				<port id="2" precision="I64" names="104" />
			</output>
		</layer>
		<layer id="122" name="Constant_854" type="Const" version="opset1">
			<data element_type="i64" shape="1" offset="107936" size="8" />
			<output>
				<port id="0" precision="I64">
					<dim>1</dim>
				</port>
			</output>
		</layer>
		<layer id="123" name="112" type="Unsqueeze" version="opset1">
			<input>
				<port id="0" precision="I64" />
				<port id="1" precision="I64">
					<dim>1</dim>
				</port>
			</input>
			<output>
				<port id="2" precision="I64" names="112">
					<dim>1</dim>
				</port>
			</output>
		</layer>
		<layer id="124" name="113" type="Const" version="opset1">
			<data element_type="i64" shape="1" offset="107952" size="8" />
			<output>
				<port id="0" precision="I64" names="113">
					<dim>1</dim>
				</port>
			</output>
		</layer>
		<layer id="125" name="114" type="Const" version="opset1">
			<data element_type="i64" shape="1" offset="107952" size="8" />
			<output>
				<port id="0" precision="I64" names="114">
					<dim>1</dim>
				</port>
			</output>
		</layer>
		<layer id="126" name="Constant_809" type="Const" version="opset1">
			<data element_type="i64" shape="1" offset="107952" size="8" />
			<output>
				<port id="0" precision="I64">
					<dim>1</dim>
				</port>
			</output>
		</layer>
		<layer id="127" name="Constant_808" type="Const" version="opset1">
			<data element_type="i64" shape="1" offset="107968" size="8" />
			<output>
				<port id="0" precision="I64">
					<dim>1</dim>
				</port>
			</output>
		</layer>
		<layer id="128" name="Constant_810" type="Const" version="opset1">
			<data element_type="i64" shape="1" offset="107944" size="8" />
			<output>
				<port id="0" precision="I64">
					<dim>1</dim>
				</port>
			</output>
		</layer>
		<layer id="129" name="98" type="StridedSlice" version="opset1">
			<data begin_mask="0" end_mask="0" new_axis_mask="" shrink_axis_mask="" ellipsis_mask="" />
			<input>
				<port id="0" precision="I64">
					<dim>4</dim>
				</port>
				<port id="1" precision="I64">
					<dim>1</dim>
				</port>
				<port id="2" precision="I64">
					<dim>1</dim>
				</port>
				<port id="3" precision="I64">
					<dim>1</dim>
				</port>
			</input>
			<output>
				<port id="4" precision="I64" names="98">
					<dim>1</dim>
				</port>
			</output>
		</layer>
		<layer id="130" name="Constant_813" type="Const" version="opset1">
			<data element_type="u64" shape="1" offset="107936" size="8" />
			<output>
				<port id="0" precision="U64">
					<dim>1</dim>
				</port>
			</output>
		</layer>
		<layer id="131" name="99" type="Squeeze" version="opset1">
			<input>
				<port id="0" precision="I64">
					<dim>1</dim>
				</port>
				<port id="1" precision="U64">
					<dim>1</dim>
				</port>
			</input>
			<output>
				<port id="2" precision="I64" names="99" />
			</output>
		</layer>
		<layer id="132" name="Constant_860" type="Const" version="opset1">
			<data element_type="i64" shape="1" offset="107936" size="8" />
			<output>
				<port id="0" precision="I64">
					<dim>1</dim>
				</port>
			</output>
		</layer>
		<layer id="133" name="115" type="Unsqueeze" version="opset1">
			<input>
				<port id="0" precision="I64" />
				<port id="1" precision="I64">
					<dim>1</dim>
				</port>
			</input>
			<output>
				<port id="2" precision="I64" names="115">
					<dim>1</dim>
				</port>
			</output>
		</layer>
		<layer id="134" name="Constant_817" type="Const" version="opset1">
			<data element_type="i64" shape="1" offset="107968" size="8" />
			<output>
				<port id="0" precision="I64">
					<dim>1</dim>
				</port>
			</output>
		</layer>
		<layer id="135" name="Constant_816" type="Const" version="opset1">
			<data element_type="i64" shape="1" offset="107960" size="8" />
			<output>
				<port id="0" precision="I64">
					<dim>1</dim>
				</port>
			</output>
		</layer>
		<layer id="136" name="Constant_818" type="Const" version="opset1">
			<data element_type="i64" shape="1" offset="107944" size="8" />
			<output>
				<port id="0" precision="I64">
					<dim>1</dim>
				</port>
			</output>
		</layer>
		<layer id="137" name="101" type="StridedSlice" version="opset1">
			<data begin_mask="0" end_mask="0" new_axis_mask="" shrink_axis_mask="" ellipsis_mask="" />
			<input>
				<port id="0" precision="I64">
					<dim>4</dim>
				</port>
				<port id="1" precision="I64">
					<dim>1</dim>
				</port>
				<port id="2" precision="I64">
					<dim>1</dim>
				</port>
				<port id="3" precision="I64">
					<dim>1</dim>
				</port>
			</input>
			<output>
				<port id="4" precision="I64" names="101">
					<dim>1</dim>
				</port>
			</output>
		</layer>
		<layer id="138" name="Constant_821" type="Const" version="opset1">
			<data element_type="u64" shape="1" offset="107936" size="8" />
			<output>
				<port id="0" precision="U64">
					<dim>1</dim>
				</port>
			</output>
		</layer>
		<layer id="139" name="102" type="Squeeze" version="opset1">
			<input>
				<port id="0" precision="I64">
					<dim>1</dim>
				</port>
				<port id="1" precision="U64">
					<dim>1</dim>
				</port>
			</input>
			<output>
				<port id="2" precision="I64" names="102" />
			</output>
		</layer>
		<layer id="140" name="Constant_862" type="Const" version="opset1">
			<data element_type="i64" shape="1" offset="107936" size="8" />
			<output>
				<port id="0" precision="I64">
					<dim>1</dim>
				</port>
			</output>
		</layer>
		<layer id="141" name="116" type="Unsqueeze" version="opset1">
			<input>
				<port id="0" precision="I64" />
				<port id="1" precision="I64">
					<dim>1</dim>
				</port>
			</input>
			<output>
				<port id="2" precision="I64" names="116">
					<dim>1</dim>
				</port>
			</output>
		</layer>
		<layer id="142" name="117" type="Concat" version="opset1">
			<data axis="0" />
			<input>
				<port id="0" precision="I64">
					<dim>1</dim>
				</port>
				<port id="1" precision="I64">
					<dim>1</dim>
				</port>
				<port id="2" precision="I64">
					<dim>1</dim>
				</port>
				<port id="3" precision="I64">
					<dim>1</dim>
				</port>
				<port id="4" precision="I64">
					<dim>1</dim>
				</port>
				<port id="5" precision="I64">
					<dim>1</dim>
				</port>
			</input>
			<output>
				<port id="6" precision="I64" names="117">
					<dim>6</dim>
				</port>
			</output>
		</layer>
		<layer id="143" name="118" type="Reshape" version="opset1">
			<data special_zero="true" />
			<input>
				<port id="0" precision="FP32">
					<dim>1</dim>
					<dim>32</dim>
					<dim>540</dim>
					<dim>960</dim>
				</port>
				<port id="1" precision="I64">
					<dim>6</dim>
				</port>
			</input>
			<output>
				<port id="2" precision="FP32" names="118">
					<dim>1</dim>
					<dim>8</dim>
					<dim>2</dim>
					<dim>2</dim>
					<dim>540</dim>
					<dim>960</dim>
				</port>
			</output>
		</layer>
		<layer id="144" name="Constant_1042" type="Const" version="opset1">
			<data element_type="i64" shape="6" offset="107976" size="48" />
			<output>
				<port id="0" precision="I64">
					<dim>6</dim>
				</port>
			</output>
		</layer>
		<layer id="145" name="119" type="Transpose" version="opset1">
			<input>
				<port id="0" precision="FP32">
					<dim>1</dim>
					<dim>8</dim>
					<dim>2</dim>
					<dim>2</dim>
					<dim>540</dim>
					<dim>960</dim>
				</port>
				<port id="1" precision="I64">
					<dim>6</dim>
				</port>
			</input>
			<output>
				<port id="2" precision="FP32" names="119">
					<dim>1</dim>
					<dim>8</dim>
					<dim>540</dim>
					<dim>2</dim>
					<dim>960</dim>
					<dim>2</dim>
				</port>
			</output>
		</layer>
		<layer id="146" name="Constant_1044" type="Const" version="opset1">
			<data element_type="i64" shape="1" offset="107936" size="8" />
			<output>
				<port id="0" precision="I64">
					<dim>1</dim>
				</port>
			</output>
		</layer>
		<layer id="147" name="120" type="Unsqueeze" version="opset1">
			<input>
				<port id="0" precision="I64" />
				<port id="1" precision="I64">
					<dim>1</dim>
				</port>
			</input>
			<output>
				<port id="2" precision="I64" names="120">
					<dim>1</dim>
				</port>
			</output>
		</layer>
		<layer id="148" name="Constant_1046" type="Const" version="opset1">
			<data element_type="i64" shape="1" offset="107936" size="8" />
			<output>
				<port id="0" precision="I64">
					<dim>1</dim>
				</port>
			</output>
		</layer>
		<layer id="149" name="121" type="Unsqueeze" version="opset1">
			<input>
				<port id="0" precision="I64" />
				<port id="1" precision="I64">
					<dim>1</dim>
				</port>
			</input>
			<output>
				<port id="2" precision="I64" names="121">
					<dim>1</dim>
				</port>
			</output>
		</layer>
		<layer id="150" name="105" type="Const" version="opset1">
			<data element_type="i64" shape="" offset="107952" size="8" />
			<output>
				<port id="0" precision="I64" names="105" />
			</output>
		</layer>
		<layer id="151" name="106" type="Multiply" version="opset1">
			<data auto_broadcast="numpy" />
			<input>
				<port id="0" precision="I64" />
				<port id="1" precision="I64" />
			</input>
			<output>
				<port id="2" precision="I64" names="106" />
			</output>
		</layer>
		<layer id="152" name="Constant_1048" type="Const" version="opset1">
			<data element_type="i64" shape="1" offset="107936" size="8" />
			<output>
				<port id="0" precision="I64">
					<dim>1</dim>
				</port>
			</output>
		</layer>
		<layer id="153" name="122" type="Unsqueeze" version="opset1">
			<input>
				<port id="0" precision="I64" />
				<port id="1" precision="I64">
					<dim>1</dim>
				</port>
			</input>
			<output>
				<port id="2" precision="I64" names="122">
					<dim>1</dim>
				</port>
			</output>
		</layer>
		<layer id="154" name="107" type="Const" version="opset1">
			<data element_type="i64" shape="" offset="107952" size="8" />
			<output>
				<port id="0" precision="I64" names="107" />
			</output>
		</layer>
		<layer id="155" name="108" type="Multiply" version="opset1">
			<data auto_broadcast="numpy" />
			<input>
				<port id="0" precision="I64" />
				<port id="1" precision="I64" />
			</input>
			<output>
				<port id="2" precision="I64" names="108" />
			</output>
		</layer>
		<layer id="156" name="Constant_1050" type="Const" version="opset1">
			<data element_type="i64" shape="1" offset="107936" size="8" />
			<output>
				<port id="0" precision="I64">
					<dim>1</dim>
				</port>
			</output>
		</layer>
		<layer id="157" name="123" type="Unsqueeze" version="opset1">
			<input>
				<port id="0" precision="I64" />
				<port id="1" precision="I64">
					<dim>1</dim>
				</port>
			</input>
			<output>
				<port id="2" precision="I64" names="123">
					<dim>1</dim>
				</port>
			</output>
		</layer>
		<layer id="158" name="124" type="Concat" version="opset1">
			<data axis="0" />
			<input>
				<port id="0" precision="I64">
					<dim>1</dim>
				</port>
				<port id="1" precision="I64">
					<dim>1</dim>
				</port>
				<port id="2" precision="I64">
					<dim>1</dim>
				</port>
				<port id="3" precision="I64">
					<dim>1</dim>
				</port>
			</input>
			<output>
				<port id="4" precision="I64" names="124">
					<dim>4</dim>
				</port>
			</output>
		</layer>
		<layer id="159" name="125" type="Reshape" version="opset1">
			<data special_zero="true" />
			<input>
				<port id="0" precision="FP32">
					<dim>1</dim>
					<dim>8</dim>
					<dim>540</dim>
					<dim>2</dim>
					<dim>960</dim>
					<dim>2</dim>
				</port>
				<port id="1" precision="I64">
					<dim>4</dim>
				</port>
			</input>
			<output>
				<port id="2" precision="FP32" names="125">
					<dim>1</dim>
					<dim>8</dim>
					<dim>1080</dim>
					<dim>1920</dim>
				</port>
			</output>
		</layer>
		<layer id="160" name="126" type="ReLU" version="opset1">
			<input>
				<port id="0" precision="FP32">
					<dim>1</dim>
					<dim>8</dim>
					<dim>1080</dim>
					<dim>1920</dim>
				</port>
			</input>
			<output>
				<port id="1" precision="FP32" names="126">
					<dim>1</dim>
					<dim>8</dim>
					<dim>1080</dim>
					<dim>1920</dim>
				</port>
			</output>
		</layer>
		<layer id="161" name="22" type="Const" version="opset1">
			<data element_type="f32" shape="3, 8, 3, 3" offset="117368" size="864" />
			<output>
				<port id="0" precision="FP32" names="22">
					<dim>3</dim>
					<dim>8</dim>
					<dim>3</dim>
					<dim>3</dim>
				</port>
			</output>
		</layer>
		<layer id="162" name="127/WithoutBiases" type="Convolution" version="opset1">
			<data strides="1, 1" dilations="1, 1" pads_begin="1, 1" pads_end="1, 1" auto_pad="explicit" />
			<input>
				<port id="0" precision="FP32">
					<dim>1</dim>
					<dim>8</dim>
					<dim>1080</dim>
					<dim>1920</dim>
				</port>
				<port id="1" precision="FP32">
					<dim>3</dim>
					<dim>8</dim>
					<dim>3</dim>
					<dim>3</dim>
				</port>
			</input>
			<output>
				<port id="2" precision="FP32">
					<dim>1</dim>
					<dim>3</dim>
					<dim>1080</dim>
					<dim>1920</dim>
				</port>
			</output>
		</layer>
		<layer id="163" name="Reshape_1257" type="Const" version="opset1">
			<data element_type="f32" shape="1, 3, 1, 1" offset="118232" size="12" />
			<output>
				<port id="0" precision="FP32">
					<dim>1</dim>
					<dim>3</dim>
					<dim>1</dim>
					<dim>1</dim>
				</port>
			</output>
		</layer>
		<layer id="164" name="127" type="Add" version="opset1">
			<data auto_broadcast="numpy" />
			<input>
				<port id="0" precision="FP32">
					<dim>1</dim>
					<dim>3</dim>
					<dim>1080</dim>
					<dim>1920</dim>
				</port>
				<port id="1" precision="FP32">
					<dim>1</dim>
					<dim>3</dim>
					<dim>1</dim>
					<dim>1</dim>
				</port>
			</input>
			<output>
				<port id="2" precision="FP32" names="127">
					<dim>1</dim>
					<dim>3</dim>
					<dim>1080</dim>
					<dim>1920</dim>
				</port>
			</output>
		</layer>
		<layer id="165" name="Constant_9756" type="Const" version="opset1">
			<data element_type="f32" shape="1, 1, 1, 1" offset="118244" size="4" />
			<output>
				<port id="0" precision="FP32">
					<dim>1</dim>
					<dim>1</dim>
					<dim>1</dim>
					<dim>1</dim>
				</port>
			</output>
		</layer>
		<layer id="166" name="Divide_1293" type="Multiply" version="opset1">
			<data auto_broadcast="numpy" />
			<rt_info>
				<attribute name="preprocessing" version="0" />
			</rt_info>
			<input>
				<port id="0" precision="FP32">
					<dim>1</dim>
					<dim>3</dim>
					<dim>1080</dim>
					<dim>1920</dim>
				</port>
				<port id="1" precision="FP32">
					<dim>1</dim>
					<dim>1</dim>
					<dim>1</dim>
					<dim>1</dim>
				</port>
			</input>
			<output>
				<port id="2" precision="FP32">
					<dim>1</dim>
					<dim>3</dim>
					<dim>1080</dim>
					<dim>1920</dim>
				</port>
			</output>
		</layer>
		<layer id="167" name="4" type="Const" version="opset1">
			<data element_type="f32" shape="8, 3, 3, 3" offset="118248" size="864" />
			<output>
				<port id="0" precision="FP32" names="4">
					<dim>8</dim>
					<dim>3</dim>
					<dim>3</dim>
					<dim>3</dim>
				</port>
			</output>
		</layer>
		<layer id="168" name="24/WithoutBiases" type="Convolution" version="opset1">
			<data strides="1, 1" dilations="1, 1" pads_begin="1, 1" pads_end="1, 1" auto_pad="explicit" />
			<input>
				<port id="0" precision="FP32">
					<dim>1</dim>
					<dim>3</dim>
					<dim>1080</dim>
					<dim>1920</dim>
				</port>
				<port id="1" precision="FP32">
					<dim>8</dim>
					<dim>3</dim>
					<dim>3</dim>
					<dim>3</dim>
				</port>
			</input>
			<output>
				<port id="2" precision="FP32">
					<dim>1</dim>
					<dim>8</dim>
					<dim>1080</dim>
					<dim>1920</dim>
				</port>
			</output>
		</layer>
		<layer id="169" name="Reshape_44" type="Const" version="opset1">
			<data element_type="f32" shape="1, 8, 1, 1" offset="119112" size="32" />
			<output>
				<port id="0" precision="FP32">
					<dim>1</dim>
					<dim>8</dim>
					<dim>1</dim>
					<dim>1</dim>
				</port>
			</output>
		</layer>
		<layer id="170" name="24" type="Add" version="opset1">
			<data auto_broadcast="numpy" />
			<input>
				<port id="0" precision="FP32">
					<dim>1</dim>
					<dim>8</dim>
					<dim>1080</dim>
					<dim>1920</dim>
				</port>
				<port id="1" precision="FP32">
					<dim>1</dim>
					<dim>8</dim>
					<dim>1</dim>
					<dim>1</dim>
				</port>
			</input>
			<output>
				<port id="2" precision="FP32" names="24">
					<dim>1</dim>
					<dim>8</dim>
					<dim>1080</dim>
					<dim>1920</dim>
				</port>
			</output>
		</layer>
		<layer id="171" name="25" type="ReLU" version="opset1">
			<input>
				<port id="0" precision="FP32">
					<dim>1</dim>
					<dim>8</dim>
					<dim>1080</dim>
					<dim>1920</dim>
				</port>
			</input>
			<output>
				<port id="1" precision="FP32" names="25">
					<dim>1</dim>
					<dim>8</dim>
					<dim>1080</dim>
					<dim>1920</dim>
				</port>
			</output>
		</layer>
		<layer id="172" name="6" type="Const" version="opset1">
			<data element_type="f32" shape="1, 8, 3, 3" offset="119144" size="288" />
			<output>
				<port id="0" precision="FP32" names="6">
					<dim>1</dim>
					<dim>8</dim>
					<dim>3</dim>
					<dim>3</dim>
				</port>
			</output>
		</layer>
		<layer id="173" name="26/WithoutBiases" type="Convolution" version="opset1">
			<data strides="1, 1" dilations="1, 1" pads_begin="1, 1" pads_end="1, 1" auto_pad="explicit" />
			<input>
				<port id="0" precision="FP32">
					<dim>1</dim>
					<dim>8</dim>
					<dim>1080</dim>
					<dim>1920</dim>
				</port>
				<port id="1" precision="FP32">
					<dim>1</dim>
					<dim>8</dim>
					<dim>3</dim>
					<dim>3</dim>
				</port>
			</input>
			<output>
				<port id="2" precision="FP32">
					<dim>1</dim>
					<dim>1</dim>
					<dim>1080</dim>
					<dim>1920</dim>
				</port>
			</output>
		</layer>
		<layer id="174" name="Reshape_93" type="Const" version="opset1">
			<data element_type="f32" shape="1, 1, 1, 1" offset="119432" size="4" />
			<output>
				<port id="0" precision="FP32">
					<dim>1</dim>
					<dim>1</dim>
					<dim>1</dim>
					<dim>1</dim>
				</port>
			</output>
		</layer>
		<layer id="175" name="26" type="Add" version="opset1">
			<data auto_broadcast="numpy" />
			<input>
				<port id="0" precision="FP32">
					<dim>1</dim>
					<dim>1</dim>
					<dim>1080</dim>
					<dim>1920</dim>
				</port>
				<port id="1" precision="FP32">
					<dim>1</dim>
					<dim>1</dim>
					<dim>1</dim>
					<dim>1</dim>
				</port>
			</input>
			<output>
				<port id="2" precision="FP32" names="26">
					<dim>1</dim>
					<dim>1</dim>
					<dim>1080</dim>
					<dim>1920</dim>
				</port>
			</output>
		</layer>
		<layer id="176" name="27" type="Sigmoid" version="opset1">
			<input>
				<port id="0" precision="FP32">
					<dim>1</dim>
					<dim>1</dim>
					<dim>1080</dim>
					<dim>1920</dim>
				</port>
			</input>
			<output>
				<port id="1" precision="FP32" names="27">
					<dim>1</dim>
					<dim>1</dim>
					<dim>1080</dim>
					<dim>1920</dim>
				</port>
			</output>
		</layer>
		<layer id="177" name="128" type="Multiply" version="opset1">
			<data auto_broadcast="numpy" />
			<input>
				<port id="0" precision="FP32">
					<dim>1</dim>
					<dim>3</dim>
					<dim>1080</dim>
					<dim>1920</dim>
				</port>
				<port id="1" precision="FP32">
					<dim>1</dim>
					<dim>1</dim>
					<dim>1080</dim>
					<dim>1920</dim>
				</port>
			</input>
			<output>
				<port id="2" precision="FP32" names="128">
					<dim>1</dim>
					<dim>3</dim>
					<dim>1080</dim>
					<dim>1920</dim>
				</port>
			</output>
		</layer>
		<layer id="178" name="129" type="Add" version="opset1">
			<data auto_broadcast="numpy" />
			<input>
				<port id="0" precision="FP32">
					<dim>1</dim>
					<dim>3</dim>
					<dim>1080</dim>
					<dim>1920</dim>
				</port>
				<port id="1" precision="FP32">
					<dim>1</dim>
					<dim>3</dim>
					<dim>1080</dim>
					<dim>1920</dim>
				</port>
			</input>
			<output>
				<port id="2" precision="FP32" names="129">
					<dim>1</dim>
					<dim>3</dim>
					<dim>1080</dim>
					<dim>1920</dim>
				</port>
			</output>
		</layer>
		<layer id="179" name="129/sink_port_0" type="Result" version="opset1">
			<input>
				<port id="0" precision="FP32">
					<dim>1</dim>
					<dim>3</dim>
					<dim>1080</dim>
					<dim>1920</dim>
				</port>
			</input>
		</layer>
	</layers>
	<edges>
		<edge from-layer="0" from-port="0" to-layer="166" to-port="0" />
		<edge from-layer="1" from-port="0" to-layer="3" to-port="0" />
		<edge from-layer="2" from-port="0" to-layer="3" to-port="1" />
		<edge from-layer="3" from-port="2" to-layer="5" to-port="0" />
		<edge from-layer="4" from-port="0" to-layer="5" to-port="1" />
		<edge from-layer="5" from-port="2" to-layer="6" to-port="0" />
		<edge from-layer="6" from-port="1" to-layer="7" to-port="0" />
		<edge from-layer="6" from-port="1" to-layer="13" to-port="1" />
		<edge from-layer="6" from-port="1" to-layer="35" to-port="0" />
		<edge from-layer="7" from-port="1" to-layer="9" to-port="0" />
		<edge from-layer="8" from-port="0" to-layer="9" to-port="1" />
		<edge from-layer="9" from-port="2" to-layer="10" to-port="0" />
		<edge from-layer="10" from-port="1" to-layer="12" to-port="0" />
		<edge from-layer="11" from-port="0" to-layer="12" to-port="1" />
		<edge from-layer="12" from-port="2" to-layer="13" to-port="0" />
		<edge from-layer="13" from-port="2" to-layer="14" to-port="0" />
		<edge from-layer="13" from-port="2" to-layer="20" to-port="1" />
		<edge from-layer="13" from-port="2" to-layer="35" to-port="1" />
		<edge from-layer="14" from-port="1" to-layer="16" to-port="0" />
		<edge from-layer="15" from-port="0" to-layer="16" to-port="1" />
		<edge from-layer="16" from-port="2" to-layer="17" to-port="0" />
		<edge from-layer="17" from-port="1" to-layer="19" to-port="0" />
		<edge from-layer="18" from-port="0" to-layer="19" to-port="1" />
		<edge from-layer="19" from-port="2" to-layer="20" to-port="0" />
		<edge from-layer="20" from-port="2" to-layer="27" to-port="1" />
		<edge from-layer="20" from-port="2" to-layer="21" to-port="0" />
		<edge from-layer="20" from-port="2" to-layer="35" to-port="2" />
		<edge from-layer="21" from-port="1" to-layer="23" to-port="0" />
		<edge from-layer="22" from-port="0" to-layer="23" to-port="1" />
		<edge from-layer="23" from-port="2" to-layer="24" to-port="0" />
		<edge from-layer="24" from-port="1" to-layer="26" to-port="0" />
		<edge from-layer="25" from-port="0" to-layer="26" to-port="1" />
		<edge from-layer="26" from-port="2" to-layer="27" to-port="0" />
		<edge from-layer="27" from-port="2" to-layer="28" to-port="0" />
		<edge from-layer="27" from-port="2" to-layer="35" to-port="3" />
		<edge from-layer="27" from-port="2" to-layer="34" to-port="1" />
		<edge from-layer="28" from-port="1" to-layer="30" to-port="0" />
		<edge from-layer="29" from-port="0" to-layer="30" to-port="1" />
		<edge from-layer="30" from-port="2" to-layer="31" to-port="0" />
		<edge from-layer="31" from-port="1" to-layer="33" to-port="0" />
		<edge from-layer="32" from-port="0" to-layer="33" to-port="1" />
		<edge from-layer="33" from-port="2" to-layer="34" to-port="0" />
		<edge from-layer="34" from-port="2" to-layer="35" to-port="4" />
		<edge from-layer="35" from-port="5" to-layer="37" to-port="0" />
		<edge from-layer="36" from-port="0" to-layer="37" to-port="1" />
		<edge from-layer="37" from-port="2" to-layer="39" to-port="0" />
		<edge from-layer="38" from-port="0" to-layer="39" to-port="1" />
		<edge from-layer="39" from-port="2" to-layer="40" to-port="0" />
		<edge from-layer="40" from-port="1" to-layer="42" to-port="0" />
		<edge from-layer="41" from-port="0" to-layer="42" to-port="1" />
		<edge from-layer="42" from-port="2" to-layer="44" to-port="0" />
		<edge from-layer="43" from-port="0" to-layer="44" to-port="1" />
		<edge from-layer="44" from-port="2" to-layer="45" to-port="0" />
		<edge from-layer="44" from-port="2" to-layer="83" to-port="0" />
		<edge from-layer="45" from-port="1" to-layer="49" to-port="0" />
		<edge from-layer="45" from-port="1" to-layer="77" to-port="0" />
		<edge from-layer="45" from-port="1" to-layer="69" to-port="0" />
		<edge from-layer="45" from-port="1" to-layer="57" to-port="0" />
		<edge from-layer="46" from-port="0" to-layer="49" to-port="1" />
		<edge from-layer="47" from-port="0" to-layer="49" to-port="2" />
		<edge from-layer="48" from-port="0" to-layer="49" to-port="3" />
		<edge from-layer="49" from-port="4" to-layer="51" to-port="0" />
		<edge from-layer="50" from-port="0" to-layer="51" to-port="1" />
		<edge from-layer="51" from-port="2" to-layer="87" to-port="0" />
		<edge from-layer="51" from-port="2" to-layer="53" to-port="0" />
		<edge from-layer="52" from-port="0" to-layer="53" to-port="1" />
		<edge from-layer="53" from-port="2" to-layer="82" to-port="0" />
		<edge from-layer="54" from-port="0" to-layer="57" to-port="1" />
		<edge from-layer="55" from-port="0" to-layer="57" to-port="2" />
		<edge from-layer="56" from-port="0" to-layer="57" to-port="3" />
		<edge from-layer="57" from-port="4" to-layer="59" to-port="0" />
		<edge from-layer="58" from-port="0" to-layer="59" to-port="1" />
		<edge from-layer="59" from-port="2" to-layer="61" to-port="0" />
		<edge from-layer="60" from-port="0" to-layer="61" to-port="1" />
		<edge from-layer="61" from-port="2" to-layer="89" to-port="0" />
		<edge from-layer="61" from-port="2" to-layer="63" to-port="0" />
		<edge from-layer="62" from-port="0" to-layer="63" to-port="1" />
		<edge from-layer="63" from-port="2" to-layer="82" to-port="1" />
		<edge from-layer="64" from-port="0" to-layer="82" to-port="2" />
		<edge from-layer="65" from-port="0" to-layer="82" to-port="3" />
		<edge from-layer="66" from-port="0" to-layer="69" to-port="1" />
		<edge from-layer="67" from-port="0" to-layer="69" to-port="2" />
		<edge from-layer="68" from-port="0" to-layer="69" to-port="3" />
		<edge from-layer="69" from-port="4" to-layer="71" to-port="0" />
		<edge from-layer="70" from-port="0" to-layer="71" to-port="1" />
		<edge from-layer="71" from-port="2" to-layer="91" to-port="0" />
		<edge from-layer="71" from-port="2" to-layer="73" to-port="0" />
		<edge from-layer="72" from-port="0" to-layer="73" to-port="1" />
		<edge from-layer="73" from-port="2" to-layer="82" to-port="4" />
		<edge from-layer="74" from-port="0" to-layer="77" to-port="1" />
		<edge from-layer="75" from-port="0" to-layer="77" to-port="2" />
		<edge from-layer="76" from-port="0" to-layer="77" to-port="3" />
		<edge from-layer="77" from-port="4" to-layer="79" to-port="0" />
		<edge from-layer="78" from-port="0" to-layer="79" to-port="1" />
		<edge from-layer="79" from-port="2" to-layer="95" to-port="0" />
		<edge from-layer="79" from-port="2" to-layer="81" to-port="0" />
		<edge from-layer="80" from-port="0" to-layer="81" to-port="1" />
		<edge from-layer="81" from-port="2" to-layer="82" to-port="5" />
		<edge from-layer="82" from-port="6" to-layer="83" to-port="1" />
		<edge from-layer="83" from-port="2" to-layer="85" to-port="0" />
		<edge from-layer="84" from-port="0" to-layer="85" to-port="1" />
		<edge from-layer="85" from-port="2" to-layer="99" to-port="0" />
		<edge from-layer="86" from-port="0" to-layer="87" to-port="1" />
		<edge from-layer="87" from-port="2" to-layer="98" to-port="0" />
		<edge from-layer="88" from-port="0" to-layer="89" to-port="1" />
		<edge from-layer="89" from-port="2" to-layer="98" to-port="1" />
		<edge from-layer="90" from-port="0" to-layer="91" to-port="1" />
		<edge from-layer="91" from-port="2" to-layer="93" to-port="0" />
		<edge from-layer="92" from-port="0" to-layer="93" to-port="1" />
		<edge from-layer="93" from-port="2" to-layer="98" to-port="2" />
		<edge from-layer="94" from-port="0" to-layer="95" to-port="1" />
		<edge from-layer="95" from-port="2" to-layer="97" to-port="0" />
		<edge from-layer="96" from-port="0" to-layer="97" to-port="1" />
		<edge from-layer="97" from-port="2" to-layer="98" to-port="3" />
		<edge from-layer="98" from-port="4" to-layer="99" to-port="1" />
		<edge from-layer="99" from-port="2" to-layer="100" to-port="0" />
		<edge from-layer="100" from-port="1" to-layer="102" to-port="0" />
		<edge from-layer="101" from-port="0" to-layer="102" to-port="1" />
		<edge from-layer="102" from-port="2" to-layer="104" to-port="0" />
		<edge from-layer="103" from-port="0" to-layer="104" to-port="1" />
		<edge from-layer="104" from-port="2" to-layer="105" to-port="0" />
		<edge from-layer="104" from-port="2" to-layer="143" to-port="0" />
		<edge from-layer="105" from-port="1" to-layer="137" to-port="0" />
		<edge from-layer="105" from-port="1" to-layer="129" to-port="0" />
		<edge from-layer="105" from-port="1" to-layer="117" to-port="0" />
		<edge from-layer="105" from-port="1" to-layer="109" to-port="0" />
		<edge from-layer="106" from-port="0" to-layer="109" to-port="1" />
		<edge from-layer="107" from-port="0" to-layer="109" to-port="2" />
		<edge from-layer="108" from-port="0" to-layer="109" to-port="3" />
		<edge from-layer="109" from-port="4" to-layer="111" to-port="0" />
		<edge from-layer="110" from-port="0" to-layer="111" to-port="1" />
		<edge from-layer="111" from-port="2" to-layer="113" to-port="0" />
		<edge from-layer="111" from-port="2" to-layer="147" to-port="0" />
		<edge from-layer="112" from-port="0" to-layer="113" to-port="1" />
		<edge from-layer="113" from-port="2" to-layer="142" to-port="0" />
		<edge from-layer="114" from-port="0" to-layer="117" to-port="1" />
		<edge from-layer="115" from-port="0" to-layer="117" to-port="2" />
		<edge from-layer="116" from-port="0" to-layer="117" to-port="3" />
		<edge from-layer="117" from-port="4" to-layer="119" to-port="0" />
		<edge from-layer="118" from-port="0" to-layer="119" to-port="1" />
		<edge from-layer="119" from-port="2" to-layer="121" to-port="0" />
		<edge from-layer="120" from-port="0" to-layer="121" to-port="1" />
		<edge from-layer="121" from-port="2" to-layer="123" to-port="0" />
		<edge from-layer="121" from-port="2" to-layer="149" to-port="0" />
		<edge from-layer="122" from-port="0" to-layer="123" to-port="1" />
		<edge from-layer="123" from-port="2" to-layer="142" to-port="1" />
		<edge from-layer="124" from-port="0" to-layer="142" to-port="2" />
		<edge from-layer="125" from-port="0" to-layer="142" to-port="3" />
		<edge from-layer="126" from-port="0" to-layer="129" to-port="1" />
		<edge from-layer="127" from-port="0" to-layer="129" to-port="2" />
		<edge from-layer="128" from-port="0" to-layer="129" to-port="3" />
		<edge from-layer="129" from-port="4" to-layer="131" to-port="0" />
		<edge from-layer="130" from-port="0" to-layer="131" to-port="1" />
		<edge from-layer="131" from-port="2" to-layer="151" to-port="0" />
		<edge from-layer="131" from-port="2" to-layer="133" to-port="0" />
		<edge from-layer="132" from-port="0" to-layer="133" to-port="1" />
		<edge from-layer="133" from-port="2" to-layer="142" to-port="4" />
		<edge from-layer="134" from-port="0" to-layer="137" to-port="1" />
		<edge from-layer="135" from-port="0" to-layer="137" to-port="2" />
		<edge from-layer="136" from-port="0" to-layer="137" to-port="3" />
		<edge from-layer="137" from-port="4" to-layer="139" to-port="0" />
		<edge from-layer="138" from-port="0" to-layer="139" to-port="1" />
		<edge from-layer="139" from-port="2" to-layer="141" to-port="0" />
		<edge from-layer="139" from-port="2" to-layer="155" to-port="0" />
		<edge from-layer="140" from-port="0" to-layer="141" to-port="1" />
		<edge from-layer="141" from-port="2" to-layer="142" to-port="5" />
		<edge from-layer="142" from-port="6" to-layer="143" to-port="1" />
		<edge from-layer="143" from-port="2" to-layer="145" to-port="0" />
		<edge from-layer="144" from-port="0" to-layer="145" to-port="1" />
		<edge from-layer="145" from-port="2" to-layer="159" to-port="0" />
		<edge from-layer="146" from-port="0" to-layer="147" to-port="1" />
		<edge from-layer="147" from-port="2" to-layer="158" to-port="0" />
		<edge from-layer="148" from-port="0" to-layer="149" to-port="1" />
		<edge from-layer="149" from-port="2" to-layer="158" to-port="1" />
		<edge from-layer="150" from-port="0" to-layer="151" to-port="1" />
		<edge from-layer="151" from-port="2" to-layer="153" to-port="0" />
		<edge from-layer="152" from-port="0" to-layer="153" to-port="1" />
		<edge from-layer="153" from-port="2" to-layer="158" to-port="2" />
		<edge from-layer="154" from-port="0" to-layer="155" to-port="1" />
		<edge from-layer="155" from-port="2" to-layer="157" to-port="0" />
		<edge from-layer="156" from-port="0" to-layer="157" to-port="1" />
		<edge from-layer="157" from-port="2" to-layer="158" to-port="3" />
		<edge from-layer="158" from-port="4" to-layer="159" to-port="1" />
		<edge from-layer="159" from-port="2" to-layer="160" to-port="0" />
		<edge from-layer="160" from-port="1" to-layer="162" to-port="0" />
		<edge from-layer="161" from-port="0" to-layer="162" to-port="1" />
		<edge from-layer="162" from-port="2" to-layer="164" to-port="0" />
		<edge from-layer="163" from-port="0" to-layer="164" to-port="1" />
		<edge from-layer="164" from-port="2" to-layer="177" to-port="0" />
		<edge from-layer="165" from-port="0" to-layer="166" to-port="1" />
		<edge from-layer="166" from-port="2" to-layer="168" to-port="0" />
		<edge from-layer="166" from-port="2" to-layer="178" to-port="1" />
		<edge from-layer="167" from-port="0" to-layer="168" to-port="1" />
		<edge from-layer="168" from-port="2" to-layer="170" to-port="0" />
		<edge from-layer="169" from-port="0" to-layer="170" to-port="1" />
		<edge from-layer="170" from-port="2" to-layer="171" to-port="0" />
		<edge from-layer="171" from-port="1" to-layer="173" to-port="0" />
		<edge from-layer="172" from-port="0" to-layer="173" to-port="1" />
		<edge from-layer="173" from-port="2" to-layer="175" to-port="0" />
		<edge from-layer="174" from-port="0" to-layer="175" to-port="1" />
		<edge from-layer="175" from-port="2" to-layer="176" to-port="0" />
		<edge from-layer="176" from-port="1" to-layer="177" to-port="1" />
		<edge from-layer="177" from-port="2" to-layer="178" to-port="0" />
		<edge from-layer="178" from-port="2" to-layer="179" to-port="0" />
	</edges>
	<rt_info>
		<MO_version value="custom_HEAD_3b86f12c37fa7b35388be509ccabf6c7423268b7" />
		<Runtime_version value="2022.3.0-8987-3b86f12c37f-HEAD" />
		<conversion_parameters>
			<data_type value="FP32" />
			<framework value="onnx" />
			<input value="0,1" />
			<input_model value="DIR/sr_32.onnx" />
			<input_shape value="[1,3,270,480],[1,3,1080,1920]" />
			<layout value="0(nchw),1(nchw)" />
			<model_name value="single-image-super-resolution-1032" />
			<output_dir value="DIR" />
			<scale_values value="0[255.0],1[255.0]" />
		</conversion_parameters>
		<legacy_frontend value="False" />
	</rt_info>
</net>
